Models/sentiment_model.joblib_03.npy (npy, 321104 bytes, 1 tensors)

array (column-major) f8 [1, 40128]
000000 dd 5d 21 24 dc 2d c1 bf 79 93 6f 5b 5b d8 80 bf
       -0.1342120338838261 -0.008225167968655122
000010 7a f7 3e 2d bb f2 2c bf a0 3a e6 6c cd 8e 88 3e
       -0.00022085699913348603 1.8297003241377931e-07
000020 c5 fe 5f b1 fd 3b f0 be 21 4c a8 9e 99 f7 86 bf
       -1.5482272907262383e-05 -0.011214447168674426
000030 9c 1f 7b 59 06 95 f8 be 3a 31 23 a7 d7 df 91 bf
       -2.3443344246115377e-05 -0.017455453468572225
000040 6f 79 67 ba f8 2b 89 bf 49 63 29 c8 48 1b 6b bf
       -0.012290900410275111 -0.003308908607590065
000050 f4 35 54 40 07 73 81 bf ec c9 66 6b 89 6d 7c bf
       -0.00852018036905642 -0.006940399928156964
000060 4c c6 83 e7 5b ee 6a bf 22 07 a4 9a c6 95 61 3f
       -0.003287486553852392 0.002146613977971238
000070 1e b1 e4 e6 87 d2 53 3f e0 d4 31 f1 cf 18 97 3f
       0.0012098624388939337 0.022555588814118788
000080 5a 53 ad cf 7d 11 f6 be c4 e5 25 ca a5 f5 c0 be
       -2.1045995690488615e-05 -2.021737217802675e-06
000090 cc f4 23 9d 71 67 46 bf c2 27 18 6e 6f 40 9d 3f
       -0.000683718181136017 0.028566113562227498
0000a0 27 6f 72 79 c9 33 7d bf 51 f1 d7 81 62 79 84 bf
       -0.007129466065773283 -0.009997148120412776
0000b0 a6 50 e7 16 dc 67 9a bf 3c 28 d4 e7 d0 d2 c3 be
       -0.02578681840698551 -2.3631453688376704e-06
0000c0 f0 78 b0 bb 3f 3d bd be 3f 3d a7 51 d0 97 72 3f
       -1.7427953327219305e-06 0.004539312120371008
0000d0 3c 28 d4 e7 d0 d2 c3 be f3 c9 c4 c5 27 31 26 bf
       -2.3631453688376704e-06 -0.0001693116236168437
0000e0 cb 02 97 6c fe e5 91 bf 00 bf d7 1c 8e 2c 7c be
       -0.017478919389534647 -1.0495649079683881e-07
0000f0 4c b7 20 40 a3 5c 97 bf 29 64 44 2f a9 c9 59 3f
       -0.022814322270441154 0.0015739586061214261
000100 3c 7b 88 1e 54 d9 af bf 57 db a2 aa 01 97 50 bf
       -0.06220496056288602 -0.001012565257537642
000110 1f 1a bd ee 62 e1 09 3f 1b 0f cb 08 8d b1 51 bf
       4.936297577145067e-05 -0.0010799290932234698
000120 19 4e 7e 68 ea ff 24 3f c0 fb 18 49 fb b1 a1 be
       0.00016021477153725717 -5.273592639866667e-07
000130 7e 3d d0 48 92 aa 62 bf 5c d7 3c 38 3c 85 26 bf
       -0.0022786004178738098 -0.0001718173990583005
000140 1d 78 ad 32 c1 b0 4d bf 10 bb d7 8a 50 4d ae 3e
       -0.0009060805653964308 9.030702778337806e-07
000150 9e e5 ab f9 0b ca 22 3f 09 88 dc e4 0f 56 e8 3e
       0.00014335056479079523 1.1604394923706728e-05
000160 3e 3a 10 0b 28 d0 82 3f ff d8 08 ea e5 c5 89 bf
       0.009186089360835866 -0.012584491924922945
000170 7d 4d d1 78 1e 83 84 3f 67 91 2d 1e 2f eb 27 bf
       0.01001571470457096 -0.00018248510522334978
000180 c7 5a 53 44 1f be 34 3f 2a a1 64 39 fb 48 51 3f
       0.00031650794364905223 0.0010549977647063649
000190 a1 83 43 ee 05 fb 26 bf b9 65 aa 60 df 81 75 bf
       -0.00017532775303321944 -0.005250809258222793
0001a0 4a fa 1a 7f c8 67 76 bf 68 7c 98 e0 cc dc 66 bf
       -0.005470069112276274 -0.002790832663563548
0001b0 d5 f9 51 1d 2a 5e 9d 3f 9f 54 2f 06 b9 85 36 bf
       0.02867952159840022 -0.000343663856424323
0001c0 32 48 f2 d9 62 c4 64 bf 6d 10 3e c7 c4 d5 3c bf
       -0.0025350504580013084 -0.0004399876991032562
0001d0 60 dc 4c 38 ea 5f ec be ed 74 23 06 71 7f 2d bf
       -1.3530095893095155e-05 -0.00022505049407232168
0001e0 0e 29 ad 6f 68 0c 45 bf 09 74 e5 ff ee 3d 6b bf
       -0.0006423482840116916 -0.003325430675586553
0001f0 81 64 0c 80 c9 cf 69 3f fc f2 70 5e 33 d9 0a bf
       0.0031508384275978356 -5.120933547473301e-05
000200 74 cd 84 0f 81 52 5c 3f 64 f4 f6 5c b2 de 09 bf
       0.0017286548955553734 -4.9342935763509855e-05
000210 2e 98 fc 72 d1 8a 2a 3f f9 9d 2f fb ab 52 e0 3e
       0.00020250136139415967 7.783382761374589e-06
000220 18 ae b4 50 f4 60 3a bf bd df 22 2a 9c 1e 46 bf
       -0.0004025074456019697 -0.0006750357172426929
000230 87 3c d4 e4 5d 79 a2 bf 88 ea 01 9c 70 40 a2 3e
       -0.03608220499347064 5.439435924037016e-07
000240 d0 3c d2 05 ed 13 c9 be 80 9c dd f9 90 5a db be
       -2.9895109450794196e-06 -6.521648087210526e-06
000250 aa 14 a7 20 26 37 12 bf aa 14 a7 20 26 37 12 bf
       -6.948633396238144e-05 -6.948633396238144e-05
000260 60 d7 83 a7 05 ba d2 be f1 a0 3d b0 35 b0 81 3f
       -4.46478099313204e-06 0.008636874619427167
000270 c5 da f8 cb f7 bf 10 bf 25 f8 c0 71 96 e8 77 bf
       -6.38957017081539e-05 -0.005837047265286476
000280 ee fc b6 d3 e8 f0 35 bf 58 53 20 b4 1d 4b 6f bf
       -0.0003347938943214075 -0.0038199978016656803
000290 2b 17 59 54 9a f5 91 bf f1 27 08 a8 ad 02 32 bf
       -0.01753846301860233 -0.0002748178449399888
0002a0 ee 01 63 8a 11 43 38 bf f5 34 81 18 44 a9 61 3f
       -0.00037020853268290757 0.0021559076304017385
0002b0 62 ad e0 19 6a 4c 68 3f 75 89 26 bb 84 bb 4f bf
       0.0029661247526939086 -0.0009683988667357606
0002c0 de e8 6f ef 37 c8 a2 bf 3a 70 d2 f8 43 d5 8b 3f
       -0.03668379590813385 0.013590365439363084
0002d0 1d d4 05 c5 ee 6f 77 bf 0c 68 b2 da 7f 09 9e bf
       -0.005721981710270743 -0.02933311245269725
0002e0 a5 a3 a3 ee e2 b9 87 bf 21 89 1a be ca 19 97 3f
       -0.011585019023600493 0.022559326031690866
0002f0 c8 dc 6e b5 2b 42 2f 3f f4 fb bd 46 f5 a5 b2 bf
       0.0002384832721113782 -0.07284481980421714
000300 f1 43 7e cb dd bd a5 3f 42 e0 eb 65 c2 fc 26 bf
       0.042464190569383116 -0.00017537949585011604
000310 3b 98 13 d2 05 e4 13 bf 07 0e c2 b2 f4 06 78 3f
       -7.587705160325222e-05 0.005866008618002911
000320 f9 9d 2f fb ab 52 e0 3e 9b 31 67 9b 65 9d 72 bf
       7.783382761374589e-06 -0.004544636633408673
000330 da 74 b5 ad 8a 94 5c 3f 58 f4 65 4d 41 02 5d bf
       0.001744399479171313 -0.0017705571859487814
000340 42 e0 eb 65 c2 fc 26 bf 31 81 f4 21 b1 b4 fa 3e
       -0.00017537949585011604 2.5468662099404827e-05
000350 43 66 cf 53 42 d0 88 bf 0e 5b 6b a5 c0 23 68 bf
       -0.012115972693140914 -0.00294673563199
000360 b8 5a 16 be 18 f9 72 3f 71 e9 84 9d 80 7a 26 bf
       0.0046320883278869115 -0.0001714975358114257
000370 2e ed fd 12 b3 98 68 3f 35 08 72 56 0d bc 65 bf
       0.003002500299712849 -0.0026531467916024684
000380 e5 67 25 9d 95 ad 9f bf 58 aa 73 0d 86 52 07 bf
       -0.030935609547078875 -4.4483867606211105e-05
000390 c5 fe 5f b1 fd 3b f0 be 50 65 c9 ef 00 b1 3a 3f
       -1.5482272907262383e-05 0.0004072787558349793
0003a0 2c 32 a0 69 37 21 81 bf ee f0 89 61 d2 e4 97 3f
       -0.008364136610930016 0.0233338233979205
0003b0 c2 d3 ce 40 da b8 45 bf 68 1c 16 c0 60 28 b0 bf
       -0.0006629052819478942 -0.06311611833199182
0003c0 15 94 21 38 88 3a 87 bf 74 44 ef fe 71 b2 9f bf
       -0.01134210988329624 -0.030954152283645134
0003d0 d1 8b 0a 4e 0e a5 33 3f 16 af c2 81 ea ea d9 be
       0.0002997550891825048 -6.179247091047331e-06
0003e0 3b d9 02 af 75 48 2f bf 40 ed 08 ab 68 ef bd 3e
       -0.00023867069785916427 1.78427641740651e-06
0003f0 f0 6f 58 ca aa 8c 9a 3f 2e d2 6d 7b 92 d7 40 bf
       0.025927227592646263 -0.0005139794583173868
000400 16 af c2 81 ea ea d9 be a8 af ee 00 84 b5 68 bf
       -6.179247091047331e-06 -0.0030162409015783327
000410 80 72 82 26 15 07 58 be 02 a2 85 cf 47 1c 90 bf
       -2.2377508208080134e-08 -0.015732881585252663
000420 ed ce 6b 27 9b 1c 5b bf 8c 77 e1 b6 a3 fb 1e bf
       -0.0016547694373771308 -0.0001181906388593985
000430 e4 60 27 ea e9 05 84 bf f4 ff 2f 8d 00 0a 9f 3f
       -0.009776904543216287 0.030311592690850334
000440 8b a1 93 f8 c8 17 53 bf 61 35 99 f0 77 3a 41 bf
       -0.0011653387649009663 -0.0005257688182582037
000450 74 2c 7a 74 a2 de 31 bf fd c3 a4 15 80 73 31 bf
       -0.00027266946970234203 -0.0002662837702188113
000460 fa 34 f4 78 22 5e 71 3f 85 b8 56 57 53 b1 87 bf
       0.00424016443072372 -0.011568690398089618
000470 34 10 d3 bf a1 b1 d3 be 48 97 d7 43 b5 8e 6b 3f
       -4.695385539214186e-06 0.003363946946353478
000480 84 a0 27 d7 02 69 b9 bf 28 b8 78 32 28 ed 85 bf
       -0.099258592155481 -0.010706247368116165
000490 60 e9 83 51 13 b8 bc be 71 60 e0 51 ee bc 49 bf
       -1.7117884621430327e-06 -0.0007854617758793603
0004a0 7e d4 f2 ec fe 14 0e 3f af 1e 88 3a b6 55 4c bf
       5.737688990718139e-05 -0.0008647098339346816
0004b0 fd d9 13 d9 78 35 27 bf 04 1d 1e ae af c0 e1 be
       -0.0001770696658593556 -8.465137799408644e-06
0004c0 43 ad cd 69 c6 92 07 3f d9 ed a3 12 40 0e 60 3f
       4.496257790872562e-05 0.0019599200651307766
0004d0 7e 97 0a 74 65 e7 8a bf 30 36 65 ab fc 32 29 bf
       -0.013136665920068454 -0.0001922543940033202
0004e0 79 6b 3d 83 ca dc 76 bf 21 69 fd c8 c1 8a b9 bf
       -0.0055816565180418715 -0.09977351338367103
0004f0 37 89 69 1b cf dd 75 bf 57 98 54 e5 57 f2 4d bf
       -0.005338486682918301 -0.0009138993433779424
000500 ec e2 28 29 cc ad e3 be 81 29 93 57 65 70 50 3f
       -9.383629081859014e-06 0.001003359763034867
000510 d5 95 c4 8f 06 3d 71 bf 0a a7 76 fd a0 dc 61 bf
       -0.004208589202141029 -0.0021803993547181476
000520 ca c7 13 4e 08 b3 01 bf 91 36 9d 4e 7d 7a 83 bf
       -3.3758822391663135e-05 -0.009510973893749582
000530 ee c8 1d 8c b5 25 3c 3f c9 2a ee b9 b8 70 4a 3f
       0.0004294937353882662 0.000806894491561871
000540 d5 36 60 98 c0 c7 23 bf f9 93 b9 77 7e 1d 5a 3f
       -0.0001509115792832002 0.0015939459834950472
000550 94 dd 47 fb 9b 32 d7 bf 0b 5d 7a 74 c4 89 99 3f
       -0.3624639467156723 0.024939603432895512
000560 0e 56 05 dc 9b b7 a4 bf db 89 dc 01 ce 0f 4e 3f
       -0.040463324172986245 0.0009174114127044568
000570 bd d2 ea 35 7c 02 2d 3f 4d e1 03 76 4c 3a 42 3f
       0.00022132650606967132 0.0005562661499701
000580 7d 6b ca 4d 4f 2a fa be c9 1f 4d 6b 3b ce 13 bf
       -2.4953148442290435e-05 -7.55523459022848e-05
000590 73 ea 85 d3 74 45 78 bf 75 1f f0 86 0e fc 64 bf
       -0.005925613739572999 -0.0025615962727022997
0005a0 40 01 5a 68 3e c9 26 bf be e8 f3 51 c3 f8 53 3f
       -0.0001738442116909853 0.0012189776824116784
0005b0 ae 27 3d 80 8f ae 87 bf cb d5 bd cd 13 73 31 bf
       -0.011563416577377552 -0.00026625855911474307
0005c0 2f 81 84 1a 2e 49 78 bf 04 37 2d 94 b3 e9 14 bf
       -0.005929164974333197 -7.977636873343288e-05
0005d0 c4 3c e1 8c 00 e2 90 3f 4d 0d c0 61 05 27 3e 3f
       0.016487129782316826 0.0004600895060777502
0005e0 03 56 3b 5a cb 9b 55 3f 5c 9c c0 38 66 5a a0 3f
       0.0013188825477546968 0.03193969195154331
0005f0 c3 58 67 ba f9 b3 31 bf 6a c5 68 5d a0 9d 27 bf
       -0.0002701267898407406 -0.00018017370776272505
000600 2f ad b2 aa 79 33 80 3f 60 0a 6e 80 b8 75 9a bf
       0.007910681268490009 -0.02583969386933871
000610 89 b9 40 81 19 5a 32 bf 34 21 d5 da 3a d5 6a bf
       -0.0002800285594756415 -0.0032755040653321913
000620 7b cd 07 30 aa c1 bc bf a7 ff c2 af 53 23 58 bf
       -0.11233009026164169 -0.0014732663394596364
000630 37 53 f2 c9 e6 b7 6c bf 71 e9 84 9d 80 7a 26 bf
       -0.003505659827690268 -0.0001714975358114257
000640 60 27 48 cf f1 2a 99 be e6 ec 42 a7 91 9b a7 bf
       -3.7502873276360555e-07 -0.04610877196088285
000650 0e 74 39 81 c7 74 d3 3e bd df dd 33 7b e0 74 3f
       4.6387122157572535e-06 0.005096894512341463
000660 bc bd 2f c6 29 9b e6 3e 0f c7 77 4e 9c 24 8e bf
       1.077943142566053e-05 -0.01471826662507028
000670 42 04 e7 3f 4e 16 da be 8b 8e 10 e7 30 73 d0 be
       -6.219656823736965e-06 -3.921977268315047e-06
000680 6d 4e 8e 47 42 b2 87 3f 9e 57 79 07 2b 24 51 bf
       0.011570470627510343 -0.0010462207991585935
000690 43 b2 4d 2c 16 6e 90 3f ab 6b 84 1a 7c c9 b6 bf
       0.016044947103568196 -0.0890119137515472
0006a0 87 fb 29 3c f4 e4 e9 be 87 97 0d d6 71 f1 a3 bf
       -1.2347389092724207e-05 -0.03895145166352081
0006b0 28 6a 40 4b 5c 93 39 bf 6d 65 b4 7b a5 c2 b9 3e
       -0.0003902530982046481 1.5354357703666915e-06
0006c0 4e 6a 98 04 3b f6 50 3f 77 27 ba 03 cf 34 72 bf
       0.001035268435208753 -0.004444893503782291
0006d0 18 e4 86 1f 90 bc 42 3f a8 3e 90 8e 41 4a cf be
       0.0005717948652580488 -3.730066158620503e-06
0006e0 30 f2 ba 1b 32 44 52 3f 35 e9 e3 47 09 d0 9d bf
       0.001114891942889728 -0.029113907826265623
0006f0 ae 61 6a 27 2d a1 59 bf a7 2b c6 76 31 fd bf bf
       -0.0015643063503941556 -0.12495717191465748
000700 a6 7c f8 53 4e c3 95 3f 07 bb 6f 8e bc 48 69 bf
       0.021252845645105232 -0.0030864413015402356
000710 f6 f2 79 57 35 88 7a bf 98 0c e3 40 74 fa 92 bf
       -0.006477554670365695 -0.018533531628020045
000720 e5 2a e7 88 41 2c 61 bf 0c 35 3f 79 01 49 2a bf
       -0.00209629821549605 -0.0002005399988988316
000730 a0 30 41 c1 86 7c 33 bf 52 7b a4 9b c5 03 33 bf
       -0.0002973393432099767 -0.0002901418153146612
000740 ee 6b 3f 42 96 26 80 bf 5d cd 11 e0 9b d9 54 bf
       -0.007886098763199425 -0.0012725851268243417
000750 f0 ef f3 36 50 10 6c bf 14 69 bd 77 29 bc 3c 3f
       -0.0034257475559780134 0.0004384614219269539
000760 df 1d 10 ef 14 b1 ea be 64 a5 54 a8 d9 61 31 3f
       -1.2727606618425278e-05 0.0002652317419512189
000770 db 48 0f fa 4d 01 82 bf 5d 07 d6 f5 da e9 24 bf
       -0.008791550821034047 -0.0001595573220747837
000780 ec e4 23 69 c7 94 8b 3f e1 19 3b 35 6e af 99 bf
       0.013467367073177937 -0.02508327674765976
000790 fc ba e2 bc 5c 53 8f 3f 7c 4e 51 f5 8e dd 29 bf
       0.015295719637234743 -0.00019733781906216055
0007a0 7d 3c ae 4c 55 d8 90 3f 3a 67 fe 11 55 86 71 bf
       0.01645024567147545 -0.004278499894917515
0007b0 c3 e8 10 e5 29 59 7d 3f f8 28 6e a8 90 a8 a1 be
       0.007165111209412159 -5.262630374686108e-07
0007c0 30 24 95 b3 cd 35 a7 3e 72 5b 25 d0 0b 2d 75 bf
       6.917169691835018e-07 -0.005169912476353443
0007d0 64 60 d8 bd 40 ad 71 3f 5b 41 f2 79 3b 20 a2 bf
       0.0043156174629289425 -0.03540216315843977
0007e0 c9 1f 4d 6b 3b ce 13 bf 4a 57 6e 5f c5 fb 4f 3f
       -7.55523459022848e-05 0.0009760583624138588
0007f0 40 55 d6 c0 29 17 e3 be 04 8d 10 b2 8f 43 76 bf
       -9.103050639317823e-06 -0.005435525236893616
